checkpoints/CartPole-v1/latest.pth (torch, 20734 bytes, 6 tensors)

linear1.weight f4 [64, 4]
00000000: cf2e af3d 28af 6cbe 7532 d9be cb1d 98be
00000010: 565b 103e 5b13 cb3e dcd1 01be 4988 53be
00000020: 640d dbbe 9a92 8e3e 631f 803e c34e 0f3e
00000030: 4ae0 933e f1b4 1f3e 6e6b bd3e 3e76 dfbe
00000040: 9761 0f3e 5229 0cbf db37 d83e a218 c53e
00000050: 0901 12bf 87f7 b6be 2057 4cbe bdb0 88be
00000060: 3a5d 6f3e 0f98 d13e f34b e03d 1011 e93e
00000070: 32ba b8bc 2ae7 8cbe 6f4b cebd 1274 1f3e
00000080: 4aac 22bd ed22 703e 9c3f bb3e f0be ad3e
00000090: 40f9 29bd c48c 1abe e951 03bd 95a9 b5be
000000a0: 7f4a 4bbe 6b30 25bd 3197 bbbe e79f ca3e
000000b0: 3aa2 d8bc 7579 b1bd a012 95bd fae7 0a3e
000000c0: 2b8c c83e e953 883e 5487 07be 7c75 00bf
000000d0: 941a 52be f7d5 a4bd dcd5 12bf 5365 cbbd
000000e0: 2368 1a3e 2b05 753e 75a4 ec3e 53de dfbe
000000f0: 6c16 c93e 8f0f d7be fa61 e93d 9047 f53e
00000100: b90d edbe 3b1f 82be 59e6 55be fb34 5a3e
00000110: a582 af3e 9e6f bdbe 79a4 a4be ff82 70be
00000120: d27d 3fbe bfa7 893d 7dd4 8e3d 19a6 97be
00000130: e864 d2bd 9076 ebbe 1181 e43e 54e7 573d
00000140: eee0 8e3d df82 f23d 40e0 b0be 6e3b a8be
00000150: af37 6cbe d61a 773e c273 dfbe dd63 96be
00000160: 1186 f73d 3574 823e e7d1 953c 1189 78be
00000170: 8b65 0a3c 0c1d 97be ff00 7e3c 3c95 4dbe
00000180: dbad fe3d 3b56 51be a603 dd3e 3616 79be
00000190: 90a2 8cbe 08a3 dfbc 99b2 c73e 16d5 f73e
000001a0: 474f 883d c27f 90bd 3f91 263e 3308 bbbe
000001b0: 355c 803e 5bb2 bebe 5831 01bf aad2 3b3d
000001c0: a732 4bbe d72d a4be 3421 0bbf baa4 3fbd
000001d0: c98c c8bd 1133 06be 0808 79be 58f9 b3be
000001e0: f8d6 c8bb fb64 e13d 952f 0abf 35d9 043f
000001f0: 11fb fb3d 6829 9d3e 1908 313e 4f89 acbd
00000200: 5c4a f73e 79b1 7bbd 94b1 57be 105c 003f
00000210: 09c0 adbe f7d3 99bd 98a1 2a3f 1d48 ddbd
00000220: 279a e0be c0eb b93d cae3 86bd e01b df3a
00000230: a82f 0e3e 46e8 ac3d 510e 433e ccbc 8bbe
00000240: d071 08be 4ac5 b03e 9855 d1be ffe6 13be
00000250: 7b3d 6b3e 1836 1abd 3e93 eabe 5b7f dcbe
00000260: 7263 81be 4db6 033f 9802 933d 32c5 e2bd
00000270: bef2 84be 1507 9bbd ca01 00be cf43 643e
00000280: ea3d 863e 7436 ce3d f06a bc3e 1298 e1be
00000290: df6d bbbe 1582 743e a5d6 99bc 0eaf ab3e
000002a0: 6d23 73be 82a5 d23e 5186 95be b46d d1bc
000002b0: 8edd 81be 3973 b1be 4d70 16be 0b06 cc3e
000002c0: c47a 91be f13d 5d3e 2083 9dbe 9d9c ebbc
000002d0: 7582 a63e 795b 9fbd 34bb d73e a3c1 03bf
000002e0: d004 df3e 5f2e 893e 68ea 0bbe 7a51 66be
000002f0: 7852 053f 39fa d2bd 111e f9bd b12b be3e
00000300: 4663 81be 5378 b73e 96aa cbbe b40f eb3c
00000310: 194e eb3e 5c4d d4bc ab83 05bf 95d3 883e
00000320: 11eb 0a3f ccb8 1bbf 4f33 9fbd cbe5 cabe
00000330: bfd8 783e d0d0 aa3e f15e 5bbe 1af2 94bd
00000340: 8fbe 94bc fd2f d73e 97f5 fd3e 796a 0e3f
00000350: eee8 c8be d12e 74be f5c8 c03e 51bd 293e
00000360: efc5 903e 0109 0abe b8de 033f c79c 4d3e
00000370: 4111 88be a826 e03e e2aa 94be 4c0a babe
00000380: 6d3c 5abe f437 babd 4a1d 1a3f 7b71 b1bd
00000390: 7e3f 02bf bda5 3bbe 3929 0cbe 36bd b5be
000003a0: 9cd0 96be f5fb 07bf 1906 f63c 1236 d4be
000003b0: 8ada b93e 82ec ea3e 5202 52be 57cf a13e
000003c0: e065 683d 7fb6 fcbe 9318 73be dd5c 023e
000003d0: 8889 343e 66fb 85be 3da5 f13e 0c03 b7bd
000003e0: 5fe6 0a3f d74a 803e 2a43 aabe 456b 2bbe
000003f0: 22bc 84be b337 57be 38d0 26bf 6f77 f4be
0.0855385 -0.23113692 -0.42421308 -0.2971023 0.14097342 0.39663205 -0.12677711 -0.20657457
-0.42783654 0.27846223 0.25023946 0.13994889 0.28882056 0.15596367 0.36996025 -0.436449
0.14002071 -0.5475055 0.42230114 0.38495356 -0.5703283 -0.35735723 -0.1995511 -0.2669734
0.23375407 0.40936324 0.10951986 0.4552083 -0.022549722 -0.27520114 -0.100729816 0.15571621
-0.03971509 0.23450823 0.36571968 0.33934736 -0.04149747 -0.1509276 -0.032060537 -0.35480943
-0.19852637 -0.040329378 -0.36638787 0.3957512 -0.026444543 -0.08665744 -0.07278943 0.13565055
0.3916944 0.26626518 -0.13235217 -0.50179267 -0.20517951 -0.08048623 -0.57357574 -0.099314354
0.15078788 0.23927753 0.4621922 -0.43724307 0.3927492 -0.42004058 0.11395641 0.4790616
-0.46299532 -0.25414452 -0.20888652 0.21309273 0.3427936 -0.3699922 -0.32156733 -0.23487471
-0.1870034 0.06721448 0.06974123 -0.2961891 -0.102731526 -0.45988894 0.4462972 0.052710846
0.06976496 0.11841368 -0.3454609 -0.3285784 -0.23068117 0.24131331 -0.43643004 -0.29373065
0.12086118 0.25479284 0.018288566 -0.24271037 0.008447061 -0.29514349 0.015503167 -0.2007646
0.12435504 -0.2044305 0.43166846 -0.24324879 -0.27467775 -0.027299419 0.39003447 0.4840476
0.06655746 -0.07055618 0.16266344 -0.36529693 0.25070348 -0.3724545 -0.5046592 0.0458552
-0.19843541 -0.32066223 -0.5434754 -0.046787955 -0.09792478 -0.13105418 -0.2431947 -0.35151172
-0.006129142 0.110055886 -0.53978854 0.5189393 0.123037465 0.30695653 0.17288245 -0.08424627
0.4829892 -0.061448548 -0.21063834 0.50140476 -0.33935574 -0.07511132 0.6665282 -0.1080477
-0.4386761 0.09078169 -0.06586416 0.0017021857 0.13885367 0.0844274 0.1904843 -0.27292478
-0.13324666 0.3452552 -0.40885615 -0.14443587 0.22972672 -0.037649244 -0.45815462 -0.43065915
-0.25271183 0.51450044 0.07178229 -0.11072768 -0.25966448 -0.0756971 -0.12500682 0.22291492
0.26219112 0.1006898 0.36800337 -0.44061333 -0.36607262 0.23877747 -0.018779108 0.33531994
-0.23743983 0.41141897 -0.29204038 -0.025565006 -0.25364345 -0.3465822 -0.14691277 0.3984836
-0.28413975 0.2160566 -0.30764103 -0.028761202 0.32521406 -0.07781119 0.42135012 -0.5146734
0.4355836 0.2679319 -0.13663638 -0.22492018 0.5207896 -0.103016324 -0.12163938 0.3714271
-0.25271052 0.35833988 -0.39778584 0.028694011 0.4595802 -0.025915794 -0.52154034 0.26723924
0.5426493 -0.6082885 -0.07773458 -0.39628443 0.24301432 0.33362436 -0.21422936 -0.0727274
-0.018157272 0.420288 0.49601433 0.55631214 -0.3924021 -0.23845984 0.37653318 0.16576125
0.2827601 -0.13479997 0.51511717 0.20079337 -0.26575664 0.43779492 -0.29036623 -0.3633598
-0.21312113 -0.090927035 0.6020094 -0.08664223 -0.5087813 -0.18324943 -0.136876 -0.3549592
-0.2945603 -0.5311883 0.030032204 -0.41447502 0.36299545 0.45883566 -0.20508698 0.316035
0.05673778 -0.49357983 -0.23739843 0.12730737 0.17630589 -0.26168364 0.4719638 -0.08936128
0.5425777 0.25057098 -0.33254367 -0.16740139 -0.25924784 -0.21017341 -0.65161467 -0.4774737

linear1.bias f4 [64]
00000000: de7b 95be f332 21be 1c01 b93e a017 cb3d
00000010: 92ae a23d e1d0 f5bd 38c3 353d 54f3 cfbe
00000020: f85f 8a3e 1fae dfbe f39a 3fbd fbe6 5fbe
00000030: c962 1fbe adba 423e 3f11 a8bd 650e 953d
00000040: c21a fbbd c4a2 123e 7dd7 f2bd 14d6 a43e
00000050: 6e42 743e 4fef c9bc ab95 7abe c27c ab3c
00000060: b43b 073e b6a6 18be 8d5f 66be 3dba 32bd
00000070: b907 e33d 8a6b 5bbd 5c6c c33d f646 95be
00000080: 55cc 423e 778c 78be 4da1 893e 21cd dbbe
00000090: e4fe d13e 703a 2dbd 73ae 9dbe 7d43 d7bd
000000a0: ff1b 31bd cf5e b6be db89 e73e e4e2 b03e
000000b0: 9563 30be f035 d8be 3fbc 263d ba1e 9f3c
000000c0: 8ac2 d5be d87c b43e b2ca 8b3e d999 0c3f
000000d0: 5149 e33d 0e29 54be 5a11 593c ff7f a33e
000000e0: 8486 bbbe 7d0a db3e af0b a9be 3170 fe3d
000000f0: 2996 043e ff54 283e 665b 52be e68d a8bd
-0.29196066 -0.15742092 0.3613366 0.099166155 0.07943453 -0.12002731 0.04437563 -0.40615332
0.27026343 -0.4368753 -0.04677863 -0.21865456 -0.15565027 0.19016524 -0.082064144 0.07278136
-0.12260963 0.14319903 -0.118575074 0.3219458 0.23853466 -0.024650244 -0.24471156 0.020933513
0.13206369 -0.14907345 -0.22497387 -0.043634642 0.11085457 -0.053569354 0.09542152 -0.291557
0.19023259 -0.24272333 0.26880875 -0.42929938 0.4101478 -0.04229206 -0.30797157 -0.10510919
-0.04323959 -0.35619208 0.45222363 0.34548104 -0.17225488 -0.4222865 0.04070687 0.019423831
-0.41749984 0.35251498 0.27303082 0.5492225 0.11097968 -0.20718786 0.013248766 0.3193359
-0.36626065 0.4278144 -0.33016726 0.124237426 0.12947907 0.16438673 -0.20542678 -0.0823019

linear2.weight f4 [64, 64]
00000000: 764e 983d 4f25 4f3c 9295 4f3e 26f4 f63d
00000010: 8674 adbd 4430 a8bb 666f 493d 0b4f 18bc
00000020: 57a8 003e 567d 72bd 0806 2b3d ccec 8e3d
00000030: 4b80 08bd 83fb ca3d e3bc e13d 091a 65bd
00000040: 7325 29be ba07 0ebd 7124 2abd d0ea 21bd
00000050: 024a a43d 30bb 53bd c37d a83d d6d2 c43c
00000060: c773 73bc a929 c7bb dd66 173d ea19 513c
00000070: 70c4 363d 6665 15bc 517b 39bc d2ec e93d
00000080: b2df 47bd 0afb 933c 7108 08be ac30 56bd
00000090: a79d e9bd 566e 52bb 424c 18be 0833 e93d
000000a0: 2413 24be ccdf 1bbc 54a5 2d3e 3f7c 983e
000000b0: 68da c33d cbc5 ce3d d9d9 69bd 629e 2f3d
000000c0: 0265 2cbd 10ef 8dbc 04c8 abbb 4f5a c5bd
000000d0: a839 e23d d07e e13d c5b6 303e ae9c 45be
000000e0: 3683 06be 2b42 4f3e 0342 1c3d 09d2 2b3b
000000f0: 6a50 64bd 1a4d 48bd da87 8bbc bdeb 613e
00000100: 6a9d 093d 4632 3ebe c552 cd3d f357 1b3c
00000110: 5627 aa3d 5e94 ebbd e04f 04bc 7034 e1bd
00000120: 4c59 d1bd 8413 9b3b b3dc a33c dd27 dcbc
00000130: bf31 d93d 243f b33d 4acb 813d 8f94 653e
00000140: 6031 44bd f3ee 89bd 1872 88bd d130 5c3e
00000150: b856 693d 9f3c 58be eb72 f53c 2798 423c
00000160: 98f5 903c b413 313d c9d7 c73d c690 123d
00000170: 53ec dcbd 73a3 afbd 7387 cbbd 16b4 263e
00000180: 6ea0 14be c728 17bc cca6 04be 5ae8 b0bd
00000190: 15b5 3f3e 71ca 7b3b 6ac5 c2bd 13e1 363e
000001a0: c7b6 e9bc 3444 63bd 48fd bc3d 7b2b 003c
000001b0: 2394 3fbe 0db0 1dbe 77be 02be 6ef5 2d3e
000001c0: 6f01 583d 8916 da3c 737c 5dbd 18f7 9dbb
000001d0: a8be 79bd db88 cc3d 2cf0 7fbd 0a0e d23d
000001e0: 4569 313e 7d04 e5bd f9b3 55be 7ca6 48bd
000001f0: 9bc1 4ebc cd43 4e3d 03dd 2e3e 054d c3bd
00000200: 8a5a 5ebc 0901 003e 5253 9f3c f6b1 0abe
00000210: bc93 39be 19e7 f63d 6b2b 933c 378d 693c
00000220: 2f58 a53d bc8a b3bd 0de3 b83c 1e6d 99bc
00000230: 1359 56bb ce9b 203d 9941 debc 8d56 12bd
00000240: 8aba 51bd 2a77 d6bd 4921 0ebd 84f1 02be
00000250: a8be b13d 0281 12be eae0 173c 5c94 063e
00000260: 300f 02be d7d6 853d 0ab5 04be aadc 383d
00000270: 47bd 4b3e aa9d 94bd 5c4f 133d 2ce7 e5bd
00000280: e4a3 7c3b 3a14 2abd 8e7d 47be de50 c2bc
00000290: 6d95 043e 4c9e 383d 0c1f 7b3d fc97 94bc
000002a0: fa8a 2e3e a67c 103e 05f8 f33d 0314 c63d
000002b0: c90a 293e 1e2b c13d 3c8e f0bd 6bf3 063d
000002c0: b677 8fbb 825d 1a3d 42d6 feba fc8f 143d
000002d0: a1ed 8fbd 4778 103e 3acf 8c3c ba21 f4bd
000002e0: 148b d03c 9c42 d83d edc3 8b3d 4938 bd3d
000002f0: d8d5 eabd 853c a8bd 0363 403d bafc 0e3e
00000300: f45c 1ebd d648 03be 44db 10be c631 ff3c
00000310: ffc0 423d 513d c5bb fb23 063e cbf6 adbd
00000320: 4e07 2f3d 84c5 553e 029d 64bd 7485 2fbe
00000330: 0fb2 54bb e1dd 343e 19f2 5bbc 4e9a 35bd
00000340: de78 29be 9fd3 0abe 08b3 4d3d dd25 e7bc
00000350: 4091 46b9 cc29 c93d d872 b5bc 8079 003c
00000360: 5ead e5bc 5b90 0fbe 6a04 a93c c797 043e
00000370: 223a e3bc 8379 1abd d800 b53d 442b 30bd
00000380: 568d 1dbe 0f85 a43d 435b 1f3e 662a 0bbc
00000390: ec04 e4bc f234 953d 0213 193e 6d25 4e3d
000003a0: bcbf 513d deb4 8abe 5d1f 563d 9cd3 fc3d
000003b0: 7e32 3d3d 6b59 843d bc1b e53d 3721 c33d
000003c0: 476a 5cbd 1e6a 46bd 03de 8b3c 5388 8e3d
000003d0: 2c03 abbd db7c 8b3b dd51 f73d 2712 a5bd
000003e0: e968 88bd 3891 d6bc 621b d1bd 1cbd 923d
000003f0: be1c bd3d b865 7ebd e8d7 d93d ba1b 0b3b
0.0743684 0.012643172 0.202719 0.12058286 -0.08469491 -0.005132707 0.049178503 -0.009296189
0.12564217 -0.05920156 0.0417538 0.06978759 -0.033325475 0.09911253 0.110223554 -0.055933032
-0.16518192 -0.034675337 -0.04153866 -0.039530575 0.08021928 -0.051692188 0.08227112 0.024026316
-0.014859146 -0.0060779643 0.036963332 0.012762526 0.04462093 -0.009118414 -0.011320905 0.11422123
-0.048797317 0.01806404 -0.1328447 -0.05229251 -0.11407023 -0.0032109222 -0.1487284 0.113866866
-0.16022927 -0.009513807 0.16957599 0.29782292 0.09563142 0.1009632 -0.05709252 0.042875655
-0.042088516 -0.017325908 -0.0052423496 -0.096363656 0.11046153 0.11010516 0.17257221 -0.1929805
-0.1313599 0.20240085 0.03814889 0.002621772 -0.05574075 -0.048901655 -0.017032553 0.22062583
0.033597387 -0.18573865 0.10025553 0.009481418 0.08308284 -0.11502908 -0.008075684 -0.1099633
-0.1022211 0.004732551 0.020002699 -0.026874477 0.106051914 0.087522775 0.063376024 0.22419952
-0.04789865 -0.06735029 -0.06662387 0.21502997 0.056967467 -0.21116875 0.029962024 0.011877096
0.017695233 0.04323168 0.097579546 0.035782598 -0.10787263 -0.08576097 -0.09937944 0.16279635
-0.14514324 -0.009226031 -0.12954253 -0.086380675 0.18721421 0.0038420225 -0.0951031 0.17859297
-0.028529538 -0.055484965 0.09227997 0.007822867 -0.18708853 -0.1539919 -0.12767969 0.16988155
0.052735742 0.026622074 -0.054073762 -0.0048207156 -0.06097284 0.099870406 -0.062484905 0.10256584
0.17325313 -0.11182497 -0.20869435 -0.048986897 -0.012619401 0.05035763 0.17076497 -0.09536175
-0.013571391 0.12500395 0.01944891 -0.13544449 -0.18122762 0.12055797 0.01796504 0.01425486
0.0807346 -0.08766696 0.022569204 -0.018728789 -0.00327069 0.039211087 -0.027130889 -0.035727073
-0.05120329 -0.104719475 -0.034699712 -0.12787443 0.08678943 -0.14307025 0.009269932 0.13142532
-0.12701106 0.06535118 -0.12959686 0.045132317 0.19896422 -0.072566345 0.035964355 -0.11225733
0.0038549835 -0.041523196 -0.19481489 -0.023720201 0.12947626 0.04507284 0.061308905 -0.018138878
0.17045203 0.1411005 0.1191254 0.09671786 0.1650802 0.09432052 -0.11745879 0.032946985
-0.0043782843 0.037686832 -0.0019442516 0.036270127 -0.07027746 0.14108382 0.017188657 -0.11920495
0.025456943 0.1055958 0.06824479 0.09239251 -0.11466569 -0.08214668 0.046969425 0.13963595
-0.038662866 -0.12820753 -0.14146143 0.031151664 0.047547337 -0.0060192724 0.13099663 -0.08494338
0.042731576 0.20876127 -0.055813797 -0.17140752 -0.0032454764 0.17662765 -0.01342442 -0.04433661
-0.16550013 -0.1355729 0.050219566 -0.028216297 -0.00018936861 0.09822425 -0.022149488 0.007841468
-0.02803677 -0.14019911 0.020631988 0.12948523 -0.02773768 -0.03771354 0.088380516 -0.04301001
-0.15385947 0.080331914 0.15562157 -0.008493995 -0.027834378 0.07285489 0.14948657 0.05032866
0.051208243 -0.27091116 0.052276004 0.12345049 0.04619073 0.064623676 0.111869305 0.095278196
-0.05381229 -0.048441045 0.017073637 0.069595955 -0.08350214 0.0042568273 0.12076161 -0.08060103
-0.06660635 -0.026192293 -0.10210301 0.07164976 0.09233998 -0.062108725 0.10636884 0.0021226243

linear2.bias f4 [64]
00000000: 0657 14bc bc43 ca3d 4389 1ebd 9e42 413d
00000010: bcfb c53d 9016 59bd 7b28 d3bc de33 2d3e
00000020: 0a85 c53d 5d2f d3bd 0a54 dcbd 0741 06be
00000030: be2c 223e 8a01 5dbc 2ced 693b c2a3 85bd
00000040: 283d 0b3c 4f33 743d 1be8 0abd 71ef 8abd
00000050: 3c83 e3bc fa5b 1c3e 9370 7cbd 8ae1 ae3d
00000060: bcee 403d 3155 07be 941d a73d 1183 053e
00000070: fcf8 0fbe 1159 17bc 2750 253e e070 92bd
00000080: 0233 0c3e ba1f b9bb d7a1 cd3d f64e babb
00000090: 71b8 20be 7872 ab3d 4b67 87bd f131 b13d
000000a0: 7c8f 93bd 56c1 e53d 7e7a 18bd d893 4bbd
000000b0: 9ae8 90bc 0a1e ca3d b869 94bd 3a68 4bbd
000000c0: 018e 2abd 38c8 7a3d 05c0 07bc b69a 363c
000000d0: e7f1 bf3d 4355 ca3d 33c0 10be 0a28 92bd
000000e0: e5d7 fa3b f714 42bd adee 5b3d c4a3 21bd
000000f0: e24f 00bd 7c92 0d3e ddc6 67be 232a 63bc
-0.009053951 0.098762006 -0.03870512 0.04718267 0.09667155 -0.053000033 -0.025776139 0.16914317
0.09644516 -0.10311768 -0.10758217 -0.13110743 0.1583738 -0.0134891365 0.0035694344 -0.06525375
0.0084984675 0.059619244 -0.03391276 -0.06783951 -0.027772538 0.15269461 -0.061630797 0.08539112
0.047102675 -0.13216092 0.081599385 0.13038279 -0.14059824 -0.009237544 0.16143857 -0.071504354
0.13691333 -0.005649534 0.10040634 -0.0056856824 -0.15695359 0.083714426 -0.066114984 0.08652104
-0.07205102 0.112185165 -0.037226193 -0.04970154 -0.017689038 0.09869011 -0.07246727 -0.049659945
-0.04163933 0.0612261 -0.008285527 0.011145284 0.09372311 0.09879544 -0.14135818 -0.07136543
0.007655131 -0.047383275 0.053694416 -0.03946282 -0.031326182 0.1382541 -0.22634454 -0.013865027

actor_linear.weight f4 [2, 64]
00000000: 6a5f c83d 89cc 98be a728 ef3d 94af 7abc
00000010: a68f fd3d f4b9 d0bc 14ca 013e a3fe 1b3e
00000020: 51df 14be 9acd 5dbd 0825 d83d 58d9 ba3d
00000030: 8eca 903d 9247 debd a664 d23c 2290 e33d
00000040: 8fc3 023e fcd1 6cbd eea5 c63d e31b fcbd
00000050: 6f95 1b3d b5f2 943d 73e4 95bd 65ea 34be
00000060: 6934 123d 2803 17bc 1a9d d33c a27b 5b3e
00000070: 501b cbbc 1445 03be 779e d53d 8807 0bbd
00000080: a6c2 f93d c565 473d 5784 0e3e 0d37 4fbd
00000090: c277 2abe 5a94 e43d 04d9 1abd b8d6 f23d
000000a0: 7033 36bd 5b6d 3f3e 97a6 c53d d64a 88bd
000000b0: c832 5dbd b000 5c3d ab44 1bbe be91 2fbc
000000c0: b639 8cbd eced ee3d 158e f1bd 8af9 7b3d
000000d0: 7b4d 3dbe 07a6 093e 9ef1 1f3e 6ad4 bf3d
000000e0: 4984 26be 1ce8 ec3d 7202 2cbc 1425 79bd
000000f0: fe64 363e 0c3b 5f3b 59fa 40bc 07c0 a3bd
00000100: ae1e a0bd e7df bb3d 5335 8e3d 6209 aabd
00000110: 27ed 8bbd 9ee7 f33d a17b 303e 574a 403c
00000120: e5e1 863d b8aa 97bd c361 14bc 27b8 933d
00000130: e67f e03d 4151 9e3d ee39 5f3d 37a0 9d3d
00000140: 95df 153d 4a2c 28ba c2f5 86bd 6484 f1bd
00000150: 45a2 d0bd 5a86 44be 8bd6 c33d 4d37 eabd
00000160: b888 9f3d 0fb7 48be f4d5 eabd 9445 96bd
00000170: a9f5 8a3d dbf3 aabd f69e 14be 80e1 91bd
00000180: 45ec dfbd c196 68be 1776 81bc 04a2 a73c
00000190: 5106 c8bb d29c 98bd 8a1a 50bd 426f 11bc
000001a0: 557f 3bbd 22d8 173e c97d 3ebd a698 0c3d
000001b0: 5e69 fe3d bdde 1ebe 9c2d 113d dedf 98bc
000001c0: b3d2 903d 092a bc3d 243c 4bba 0a3b 39bd
000001d0: 06ce e43b b2b1 febb 26ac f33c 2799 833c
000001e0: 9958 103d cfb5 40bd a5d2 c8bc 12f8 3dbd
000001f0: 724e bcbd 08a8 babd 4e73 cebc c9f0 a2bc
0.09783824 -0.29843548 0.11677676 -0.01530065 0.123809144 -0.025479294 0.12674743 0.15233855
-0.14538313 -0.054151155 0.10553938 0.09123486 0.07069884 -0.10853495 0.025682759 0.111114755
0.12769912 -0.057817444 0.09699617 -0.123100065 0.037984308 0.07272855 -0.07318964 -0.1766754
0.035694513 -0.009217061 0.025831748 0.21433881 -0.024793297 -0.1281932 0.104306154 -0.03394273
0.12195329 0.04868104 0.13917671 -0.05058961 -0.16647246 0.11161108 -0.03780462 0.118573606
-0.04448265 0.1869406 0.09650915 -0.06654899 -0.054003507 0.053711593 -0.15162914 -0.0107159
-0.06846945 0.11666474 -0.11794678 0.061517276 -0.18486588 0.1344224 0.15619513 0.09366687
-0.162614 0.11567709 -0.01049863 -0.060826376 0.17811963 0.0034062294 -0.0117784375 -0.07995611
-0.07818352 0.09173565 0.069437645 -0.08302571 -0.068323426 0.11909412 0.1723466 0.011736474
0.06586055 -0.07405609 -0.009056511 0.07212859 0.10961895 0.07730342 0.054498605 0.07696574
0.036590178 -0.0006415291 -0.06589843 -0.1179283 -0.101872005 -0.19191876 0.09562405 -0.11436329
0.07789749 -0.19601081 -0.114665896 -0.0733749 0.06785137 -0.08347293 -0.14513764 -0.07123089
-0.10933737 -0.22713758 -0.01580338 0.020462997 -0.0061042686 -0.07451786 -0.05080656 -0.008876624
-0.04577573 0.14828542 -0.046506677 0.034325264 0.12422441 -0.15514655 0.035443887 -0.018661436
0.07071438 0.09187705 -0.0007752797 -0.04522232 0.0069825677 -0.007772648 0.029745173 0.01606424
0.035240743 -0.047048386 -0.024514506 -0.046379156 -0.0919465 -0.09114081 -0.025201466 -0.019890206

actor_linear.bias f4 [2]
00000000: 4568 f3bd 83af 8bbc
-0.11885122 -0.017051464
